boston_house_price_prediction_with_svm/model_svr.pkl_06.npy (npy, 17032 bytes, 1 tensors)

array f8 [163, 13]
-0.19987083812827802 -0.4910760353652439 1.268631454742657 -0.2634399949036333 0.4818219333710579 -0.6029215167170153 0.383267129446567 -0.6721218705688791
-0.5019249140431251 -0.01766017969004212 -1.775000220872414 -1.3475825764107217 -0.07635247048766922 -0.402266375705771 -0.4910760353652439 -0.5671067471986665
-0.2634399949036333 -0.7210044762834005 1.282893991839583 -0.2495537035471312 0.5281276213535011 -0.852513950843852 -0.9854061107169632 -0.3452863156721081
0.3977955727685468 -1.1966165519640566 -0.4005837321353661 0.6978778551300744 0.6024243055169488 -0.2634399949036333 -0.7652260354618728 0.21167004470078202
-0.5117722807544647 -0.08644999508337949 -0.6187879263100341 -0.8171024705383682 -0.16080710209787583 0.4208250145141637 -0.6261244858114698 0.680646040011675
-0.4910760353652439 1.0514537937615895 -0.2634399949036333 1.4370076116260688 0.6240119678255422 0.9042080361651358 -0.6389652853599418 1.7184723190281446
1.563191869130332 0.7615889657732889 -3.6814791657956376 0.8311857558131774 2.5558655414862175 -0.4910760353652439 1.0514537937615895 -0.2634399949036333
1.1363010092124548 -1.429047117942497 0.7293956513602469 -1.039772667244615 1.7184723190281446 1.563191869130332 0.7615889657732889 -2.406619977785989
1.9265857762950211 0.7432794218145296 -0.4910760353652439 1.0514537937615895 -0.2634399949036333 0.29609138482147224 0.7753962403014166 0.9112005315573315
-0.8316229934329541 1.7184723190281446 1.563191869130332 0.7615889657732889 -2.8928792454698153 0.966556754561249 -0.3928714255128045 -0.4910760353652439
0.14605773413105627 -0.2634399949036333 0.19880395462883213 0.7191677962389484 0.7363881467524425 -0.6895975636277205 -0.9693769631107608 -0.7990699376620901
1.130547392921755 0.4043452305127131 -0.858189055093878 -0.3677310867400583 -0.4910760353652439 1.607604695868513 -0.2634399949036333 0.6498638582492544
-0.6822180403948536 0.9496592562144074 -0.6513399653097162 -0.6187879263100341 0.1867085262411089 1.2227869997088714 0.3540607613800821 0.32285384214694957
-0.3908337601307334 -0.4910760353652439 -0.5905854132506738 -0.2634399949036333 -0.9067350248329856 0.6845656768158915 -2.284369862676039 0.8841594437252507
-0.735650938576943 -1.0395037093457973 -0.29916651227855084 0.31941095912062223 -1.08472827748861 -0.40134400392497915 0.9526536888076426 -0.7109135767672115
-0.2634399949036333 -1.039399702368404 0.42504978114296554 -0.9732769766393716 0.7759046099661565 -0.26819888950930726 -0.4624626573049002 -1.1293229733625978
0.4286423479507493 -0.44102536507431084 -0.3973759787888004 -0.4910760353652439 0.4336713932681463 -0.2634399949036333 -0.004615217592141632 0.5000210398929228
0.5895457435163357 -0.20207295888890395 -0.5019249140431251 -0.7810374047858121 -0.9909635631819245 0.397267374563372 -0.41477996735784806 -0.3111741715079402
0.35817674355998347 -1.0220059019563086 -0.2634399949036333 0.8532830304702291 1.4876231984260033 0.9181930269495272 -0.836062764101957 -0.5019249140431251
-0.8531675362909242 -2.559036878562904 0.4040283115896086 -0.1992914387384689 -0.343680927485451 0.35817674355998347 -1.0220059019563086 -0.2634399949036333
0.21649257830022123 1.6937941599883835 -0.5467347577154424 -0.4614216902026844 -0.5019249140431251 -0.8531675362909242 -2.559036878562904 0.37106874358670744
-1.3167928467710182 -0.37661576442558176 -0.4910760353652439 -0.05057609405450514 -0.2634399949036333 -0.5441182395695094 -0.7384464844573205 0.1560110292002113
0.2389757486339664 -0.6187879263100341 -0.7750265604937194 0.023672111476358115 0.36187809481666766 0.7413988688884359 -0.379209364284442 -0.4910760353652439
-0.5905854132506738 -0.2634399949036333 -0.9067350248329856 -0.38233300539502724 0.603530734300727 0.8692814888238044 -0.735650938576943 -1.0395037093457973
-0.29916651227855084 0.39684481599923266 0.8436177863104493 1.4051496674867017 -0.4910760353652439 1.0514537937615895 -0.2634399949036333 1.1363010092124548
-0.5755281721737618 0.9496592562144074 -0.9159786361440108 1.7184723190281446 1.563191869130332 0.7615889657732889 -3.670915201692144 1.6157850138632244
0.03261251260061442 -0.4910760353652439 1.0514537937615895 -0.2634399949036333 1.9411333862606583 -0.06370515570771189 0.7993206052822024 -0.7337118807005798
1.7184723190281446 1.563191869130332 0.7615889657732889 -0.047792433116827626 0.2068215575057455 0.3893820361435078 -0.4910760353652439 1.0514537937615895
-0.2634399949036333 1.3220315577620396 -0.8393693327745702 1.0055992193519716 -0.9079964952603776 1.7184723190281446 1.563191869130332 0.7615889657732889
0.41469791533413736 0.6101718803061217 -0.3908189199906959 0.7828031330225971 -0.8811339056442647 -0.2634399949036333 -1.0836212615468768 0.14102405087870706
-2.113053725567248 1.5050660949456034 -0.3850619017762162 -0.6367771417755879 -0.8987239563948066 0.2063765432132366 -1.0363814922214416 -0.33802455103269896
-0.4910760353652439 1.607604695868513 -0.2634399949036333 0.6498638582492544 0.11074719638353245 1.0370654486168518 -0.7186449993876869 -0.6187879263100341
00000000: 2db0 971c 5e95 c9bf 548e ef2d ca6d dfbf
00000010: f0be 0c7f 504c f43f e172 a46c 33dc d0bf
00000020: 71bf 94a9 2bd6 de3f 6956 8b10 224b e3bf
00000030: 1bb5 a6da 7287 d83f 39a1 a0b9 0582 e5bf
00000040: 559c 5bd6 c40f e0bf 6c42 d798 8215 92bf
00000050: 00a3 b0a1 6666 fcbf db7e 65bf b28f f5bf
00000060: be9d b6e3 d58b b3bf 79f3 fb77 bbbe d9bf
00000070: 548e ef2d ca6d dfbf 11e5 910c bd25 e2bf
00000080: e172 a46c 33dc d0bf 9c04 bdfa 7712 e7bf
00000090: 72f9 b2d9 bb86 f43f 5a51 aa31 60f1 cfbf
000000a0: 5c7b bae5 6be6 e03f 5242 4856 cb47 ebbf
000000b0: 6ada 5965 7288 efbf b65a 64c6 2b19 d6bf
000000c0: 3235 e28f 7b75 d93f 459b c865 5725 f3bf
000000d0: 752f 35f3 29a3 d9bf 885c 8cf0 0355 e63f
000000e0: 8958 5056 0f47 e33f e172 a46c 33dc d0bf
000000f0: 4968 8b4f bb7c e8bf 1130 c407 0118 cb3f
00000100: 48df 1a43 7060 e0bf 915a 9f3d 9621 b6bf
00000110: ff28 5556 1ccd e3bf d52d 8e14 b425 eabf
00000120: d7c9 3cbe 5395 c4bf ed54 ab0a ccee da3f
00000130: 5e1f b937 3609 e4bf ce10 4034 dac7 e53f
00000140: 548e ef2d ca6d dfbf e560 9736 c1d2 f03f
00000150: e172 a46c 33dc d0bf b297 80b1 fbfd f63f
00000160: 24f2 43f2 e7f7 e33f 3382 03b1 45ef ec3f
00000170: e9ce 7c53 6772 e4bf 20ea 94d4 dc7e fb3f
00000180: 309b 347a d502 f93f 23b4 9fd2 ef5e e83f
00000190: 23fb 4f59 ab73 0dc0 e4cb c3de 1299 ea3f
000001a0: ca40 0da2 6972 0440 548e ef2d ca6d dfbf
000001b0: e560 9736 c1d2 f03f e172 a46c 33dc d0bf
000001c0: 2aab 8ff7 492e f23f e718 c082 60dd f6bf
000001d0: e8fa 8d8c 3557 e73f eb71 11aa e8a2 f0bf
000001e0: 20ea 94d4 dc7e fb3f 309b 347a d502 f93f
000001f0: 23b4 9fd2 ef5e e83f b6ed 93f9 c140 03c0
00000200: a303 629b 4bd3 fe3f 5276 0fed f1c8 e73f
00000210: 548e ef2d ca6d dfbf e560 9736 c1d2 f03f
00000220: e172 a46c 33dc d0bf 72e0 9b47 29f3 d23f
00000230: 6f26 b1c6 0bd0 e83f a85e 6404 8e28 ed3f
00000240: 59ad ecd2 a79c eabf 20ea 94d4 dc7e fb3f
00000250: 309b 347a d502 f93f 23b4 9fd2 ef5e e83f
00000260: 638f b4df 9d24 07c0 da30 526e 08ee ee3f
00000270: b810 0731 ce24 d9bf 548e ef2d ca6d dfbf
00000280: 20db b513 05b2 c23f e172 a46c 33dc d0bf
00000290: 6b20 b971 6872 c93f 7ad8 a52e 6c03 e73f
000002a0: 5cd7 eedf 7d90 e73f b8d5 e5e8 2e11 e6bf
000002b0: fbce 41d6 2205 efbf c536 2f1e fb91 e9bf
000002c0: fed4 f2dc b816 f23f b01f 56d1 cae0 d93f
000002d0: 263a ade4 4876 ebbf 8859 d1f7 e788 d7bf
000002e0: 548e ef2d ca6d dfbf af6b 9ab3 bfb8 f93f
000002f0: e172 a46c 33dc d0bf be0d 414a afcb e43f
00000300: 5996 87ed bad4 e5bf 271b f9ce 9b63 ee3f
00000310: fba7 32e9 c6d7 e4bf ff28 5556 1ccd e3bf
00000320: 8482 0ba3 10e6 c73f b893 db19 8990 f33f
00000330: ef27 bb77 eea8 d63f 9c2e 5a29 a3a9 d43f
00000340: 13ca 7b9a 6b03 d9bf 548e ef2d ca6d dfbf
00000350: 5200 6d61 13e6 e2bf e172 a46c 33dc d0bf
00000360: 1774 b92b f903 edbf 716d 3c47 f6e7 e53f
00000370: f44a e1b4 6346 02c0 f0fb e7be 084b ec3f
00000380: a8b5 4ed6 738a e7bf cd5f 3ba4 cea1 f0bf
00000390: 52dd 924c 8b25 d3bf 5c0d daa9 3a71 d43f
000003a0: 88c2 cd09 0c5b f1bf 3c6c d3c2 9eaf d9bf
000003b0: 77f6 ba96 237c ee3f 00ec 4fd4 cdbf e6bf
000003c0: e172 a46c 33dc d0bf 954f 1295 61a1 f0bf
000003d0: 6a95 4bff 0334 db3f 1ab5 13c2 1525 efbf
000003e0: 51d9 93e7 35d4 e83f 0406 d1ac 2b2a d1bf
000003f0: 38bb 2ff9 fc98 ddbf e06b 53f7 b411 f2bf
00000400: 8443 8850 e06e db3f 0dd7 ec73 c239 dcbf
00000410: ee49 47a8 9b6e d9bf 548e ef2d ca6d dfbf
00000420: 4e09 d3a8 45c1 db3f e172 a46c 33dc d0bf
00000430: d06a f409 68e7 72bf 4edd b41f 2c00 e03f
00000440: dfc1 fc08 8fdd e23f cbb9 ead6 86dd c9bf
00000450: 559c 5bd6 c40f e0bf b53f d027 42fe e8bf
00000460: 9c9b ec37 f9b5 efbf 261e 6123 d46c d93f
00000470: 3ca0 b546 c18b dabf c922 7f12 47ea d3bf
00000480: 3dc9 f125 5eec d63f 8f8a 53dc 225a f0bf
00000490: e172 a46c 33dc d0bf b73e c336 184e eb3f
000004a0: 6e2b a0fb 4dcd f73f 1d3b c557 d661 ed3f
000004b0: a114 a7b2 06c1 eabf 559c 5bd6 c40f e0bf
000004c0: f51b 4c01 264d ebbf 1a7c b553 e878 04c0
000004d0: b0de 3b90 99db d93f d593 e0c1 6182 c9bf
000004e0: fec5 f349 defe d5bf 3dc9 f125 5eec d63f
000004f0: 8f8a 53dc 225a f0bf e172 a46c 33dc d0bf
00000500: 5226 d05f 07b6 cb3f f6e4 b4e7 c719 fb3f
00000510: 8a2d ffe3 d97e e1bf 087a 45d7 ee87 ddbf
00000520: 559c 5bd6 c40f e0bf f51b 4c01 264d ebbf
00000530: 1a7c b553 e878 04c0 3774 911d 97bf d73f
00000540: eccf 4760 9511 f5bf 226b d701 791a d8bf
00000550: 548e ef2d ca6d dfbf 90d7 d81b 1ce5 a9bf
00000560: e172 a46c 33dc d0bf da75 83a7 6a69 e1bf
00000570: 43e4 9285 5aa1 e7bf 7977 1d5e 2bf8 c33f
00000580: a3c2 75e0 c196 ce3f ff28 5556 1ccd e3bf
00000590: b042 5b80 04cd e8bf d00f 7982 803d 983f
000005a0: 8616 98bd 0229 d73f e659 e51e 8ab9 e73f
000005b0: 7f12 7c5a f744 d8bf 548e ef2d ca6d dfbf
000005c0: 5200 6d61 13e6 e2bf e172 a46c 33dc d0bf
000005d0: 1774 b92b f903 edbf 1a98 96da 2478 d8bf
000005e0: c87a beaf 1f50 e33f 9786 b069 27d1 eb3f
000005f0: a8b5 4ed6 738a e7bf cd5f 3ba4 cea1 f0bf
00000600: 52dd 924c 8b25 d3bf 2572 93cc e765 d93f
00000610: 9cdf 50ba eafe ea3f 5673 bd37 7e7b f63f
00000620: 548e ef2d ca6d dfbf e560 9736 c1d2 f03f
00000630: e172 a46c 33dc d0bf 2aab 8ff7 492e f23f
00000640: 0137 ad0e ba6a e2bf 271b f9ce 9b63 ee3f
00000650: bc57 c26d b24f edbf 20ea 94d4 dc7e fb3f
00000660: 309b 347a d502 f93f 23b4 9fd2 ef5e e83f
00000670: 8a41 0dca 085e 0dc0 218d fe62 41da f93f
00000680: d7bb 1e56 96b2 a03f 548e ef2d ca6d dfbf
00000690: e560 9736 c1d2 f03f e172 a46c 33dc d0bf
000006a0: ba9c b2e1 e10e ff3f ebe8 5928 fb4e b0bf
000006b0: 6c97 56ce 0894 e93f ea75 8956 917a e7bf
000006c0: 20ea 94d4 dc7e fb3f 309b 347a d502 f93f
000006d0: 23b4 9fd2 ef5e e83f 4851 77f2 3f78 a8bf
000006e0: a827 ccf8 2079 ca3f 6bb8 b8a1 a2eb d83f
000006f0: 548e ef2d ca6d dfbf e560 9736 c1d2 f03f
00000700: e172 a46c 33dc d0bf e6e2 0d90 0a27 f53f
00000710: 2007 3113 1ddc eabf 61ff ff34 ef16 f03f
00000720: 82d4 80aa 4e0e edbf 20ea 94d4 dc7e fb3f
00000730: 309b 347a d502 f93f 23b4 9fd2 ef5e e83f
00000740: 7a16 0520 698a da3f d950 db2d 8786 e33f
00000750: 3728 015c 2d03 d9bf 823a f127 b90c e93f
00000760: 9971 84bb 3f32 ecbf e172 a46c 33dc d0bf
00000770: 6d81 793f 8356 f1bf 389b 3c7b 130d c23f
00000780: b004 30b6 88e7 00c0 bbc1 812f c014 f83f
00000790: 571f c4ac daa4 d8bf 3687 d874 7a60 e4bf
000007a0: 1a1e 1bbe 58c2 ecbf bb95 e1eb 8b6a ca3f
000007b0: 1355 74c2 0495 f0bf b98d fbb9 31a2 d5bf
000007c0: 548e ef2d ca6d dfbf af6b 9ab3 bfb8 f93f
000007d0: e172 a46c 33dc d0bf be0d 414a afcb e43f
000007e0: 3e49 97a2 ed59 bc3f 66ef 99f0 d197 f03f
000007f0: d2ba 39cc 23ff e6bf ff28 5556 1ccd e3bf
