boston_house_price_prediction_with_svm/model_svr.pkl_07.npy (npy, 1384 bytes, 1 tensors)

array f8 [1, 163]
00000000: 06c2 06e3 713e 6140 0000 0000 00c0 6740
00000010: 61b3 d903 af92 53c0 0000 0000 00c0 6740
00000020: 7a59 1fe0 579f 5740 0000 0000 00c0 67c0
00000030: 7d25 3ee4 6878 60c0 820f ede3 e212 4b40
00000040: 0000 0000 00c0 67c0 0000 0000 00c0 67c0
00000050: 0000 0000 00c0 6740 0000 0000 00c0 67c0
00000060: 5d1f ebe0 2372 45c0 0000 0000 00c0 6740
00000070: 6c02 6d20 ccf9 61c0 478a fcf1 157a 64c0
00000080: 92a5 0d5a 3cb1 5e40 dcdb 7a37 acd5 59c0
00000090: c251 5161 6431 55c0 0000 0000 00c0 6740
000000a0: 0000 0000 00c0 6740 2a94 4efd 962f 46c0
000000b0: 0550 7239 771e 5a40 f13e 6795 946d 6040
000000c0: 0000 0000 00c0 67c0 ca2d f1e9 3c9a 5840
000000d0: e9a4 929b 9c9f 5740 0000 0000 00c0 67c0
000000e0: 0000 0000 00c0 6740 e7b5 713d e5c1 4840
000000f0: f2c1 ecbb 9a3b 4740 4b62 b567 770c 50c0
00000100: 0000 0000 00c0 6740 1a91 6dc6 f19e 60c0
00000110: 9bbf c439 d5c1 64c0 0000 0000 00c0 6740
00000120: ee82 1324 fa70 25c0 a095 ac82 3557 5240
00000130: 0000 0000 00c0 67c0 cf2e 1278 6b5e 5340
00000140: 1fc3 afd7 2aa1 5e40 0000 0000 00c0 67c0
00000150: 4e7f a9e9 fc0b 29c0 b374 247b 0a75 48c0
00000160: 0000 0000 00c0 67c0 99b6 c7c6 5f99 3c40
00000170: 898a a237 61de 3dc0 0000 0000 00c0 6740
00000180: 0000 0000 00c0 6740 db70 c6eb cc85 62c0
00000190: 0089 5169 9a46 5f40 a4e2 94d4 1e90 0440
000001a0: 0000 0000 00c0 6740 db01 5a7c 39dc 58c0
000001b0: 0000 0000 00c0 67c0 5152 bd67 1306 5140
000001c0: 0000 0000 00c0 6740 ebec baf1 2326 6440
000001d0: e643 6579 1f5d 58c0 0000 0000 00c0 67c0
000001e0: befe 4f49 af91 1b40 0000 0000 00c0 67c0
000001f0: 3a4f 64d1 ea5f 30c0 bc3c 2426 679c 4cc0
00000200: dc45 7c35 2d45 48c0 0000 0000 00c0 67c0
00000210: 464f b841 1830 3440 0000 0000 00c0 67c0
00000220: 0000 0000 00c0 6740 2780 c08e b572 1d40
00000230: d04b 92ef eaa6 22c0 f705 b87d 3a1f 44c0
00000240: 2eaf 7934 5b13 30c0 723b ac8e 3a33 34c0
00000250: 0000 0000 00c0 67c0 0000 0000 00c0 6740
00000260: 0000 0000 00c0 6740 c12c 61be 1fa4 6140
00000270: 0000 0000 00c0 6740 0000 0000 00c0 67c0
00000280: be89 5280 d907 5040 0000 0000 00c0 6740
00000290: 0000 0000 00c0 67c0 0000 0000 00c0 67c0
000002a0: f557 610a cd12 45c0 0000 0000 00c0 6740
000002b0: 0000 0000 00c0 67c0 75be 77d6 89d6 66c0
000002c0: 29f9 aa80 1a79 6440 85d8 1bdd 7bae 4fc0
000002d0: 2d05 bf11 af5d 54c0 0000 0000 00c0 67c0
000002e0: c65f d031 758a 35c0 3734 14cc 14d5 16c0
000002f0: 4c2a 4885 36f0 4740 58e2 bfc3 fe95 6240
00000300: 6bb9 14f5 1937 64c0 cd42 9261 ce59 2740
00000310: e4b2 8664 9323 40c0 fd6b 9e55 cfeb 2e40
00000320: 0000 0000 00c0 6740 0000 0000 00c0 6740
00000330: c26b 385e e39c 63c0 0000 0000 00c0 67c0
00000340: ea0e 8655 3305 3a40 c53c 9cce 9e63 5a40
00000350: 0000 0000 00c0 67c0 bbd1 d6fa ec24 6040
00000360: 0000 0000 00c0 6740 0000 0000 00c0 67c0
00000370: 186a 1947 5f76 2340 3d76 1fb3 5999 60c0
00000380: d778 46e2 56b2 5d40 f271 3bfa eae3 40c0
00000390: fe1b fa33 6617 f1bf 0000 0000 00c0 6740
000003a0: 0000 0000 00c0 67c0 d4f9 9d0d 58af 17c0
000003b0: d720 aaf9 f7ef 44c0 0000 0000 00c0 6740
000003c0: e8fb 7a42 1d54 50c0 0000 0000 00c0 6740
000003d0: 0000 0000 00c0 67c0 9d37 386b 9716 4a40
000003e0: 9838 fb4f ba7b 0740 0000 0000 00c0 6740
000003f0: 77c1 bf87 77fe 1240 eaa6 1d6d 7551 fcbf
00000400: 0000 0000 00c0 67c0 0000 0000 00c0 6740
00000410: 0000 0000 00c0 67c0 0000 0000 00c0 6740
00000420: 8305 cb38 1dea 4240 0000 0000 00c0 67c0
00000430: 0000 0000 00c0 67c0 0000 0000 00c0 6740
00000440: 5d61 46e1 ebda 4040 3dda 6c45 b006 5940
00000450: 53f7 8d24 f616 6440 0000 0000 00c0 67c0
00000460: 3d95 1775 a0d8 3b40 38d3 a94e 84db 5ec0
00000470: 0000 0000 00c0 6740 0000 0000 00c0 6740
00000480: 8361 d5cc 8629 5c40 3c2e 7c25 cbb9 6640
00000490: 0000 0000 00c0 6740 0000 0000 00c0 6740
000004a0: 0000 0000 00c0 67c0 0000 0000 00c0 67c0
000004b0: 0000 0000 00c0 6740 0000 0000 00c0 67c0
000004c0: 0000 0000 00c0 67c0 e740 9538 d4c6 2740
000004d0: 0000 0000 00c0 6740 0000 0000 00c0 67c0
000004e0: 0000 0000 00c0 67c0 0000 0000 00c0 67c0
000004f0: 0000 0000 00c0 6740 9cdc c1ad 655f 24c0
00000500: 7630 0f0e 5652 65c0 0000 0000 00c0 6740
00000510: 0000 0000 00c0 67c0
137.951402199935 190.0 -78.29193207034906 190.0 94.48973849355198 -190.0 -131.76280414712883 54.14754914355491
-190.0 -190.0 190.0 -190.0 -42.891719927602686 190.0 -143.806167805585 -163.8151788647103
122.76930857975665 -103.33863627431805 -84.77175171796173 190.0 190.0 -44.371795333260096 104.47602687991464 131.42438764729698
-190.0 98.40996788551925 94.4939335758278 -190.0 190.0 49.51480835010789 46.465659609417244 -64.19478790963437
190.0 -132.9670135631539 -166.05727852275308 190.0 -10.72065842378785 73.36264101842835 -190.0 77.47530938888234
122.5182399002483 -190.0 -12.523413946095072 -48.914382355499946 -190.0 28.599117683179973 -29.868670918639086 190.0
190.0 -148.18126477010705 125.10317452394884 2.570371304315204 190.0 -99.44100865163584 -190.0 68.09493440140183
190.0 161.19188772686843 -97.45504603280241 -190.0 6.892270226962578 -190.0 -16.374676787366504 -57.22189785737416
-48.540442166977044 -190.0 20.187870128152348 -190.0 190.0 7.362020712374977 -9.326011168106476 -40.24397250638497
-16.07561042757805 -20.20011226372612 -190.0 190.0 190.0 141.12887495974977 190.0 -190.0
64.12265022335393 190.0 -190.0 -190.0 -42.14688234093766 190.0 -190.0 -182.70432589900489
163.7844851817438 -63.36315502032907 -81.46381038336104 -190.0 -21.540850747463786 -5.7080871474582215 47.87666383765881 148.68734920003294
-161.72191862151826 11.675402688125724 -32.27793556763734 15.4605662113081 190.0 190.0 -156.90275488872254 -190.0
26.020314545849864 105.5565678144222 -190.0 129.1539282031716 190.0 -190.0 9.731195661403987 -132.79219967026611
118.78655297166857 -33.78060844328492 -1.0682127027846486 190.0 -190.0 -5.921234333769878 -41.87475510413213 190.0
-65.31428586969525 190.0 -190.0 52.17649593586905 2.9354139565030657 190.0 4.748502846793023 -1.7698873770081556
-190.0 190.0 -190.0 190.0 37.82901678002511 -190.0 -190.0 190.0
33.71032348572292 100.10450873975874 160.71754672744518 -190.0 27.846198385484275 -123.4299503954361 190.0 190.0
112.64885254705409 181.80604814771675 190.0 190.0 -190.0 -190.0 190.0 -190.0
-190.0 11.888337867946076 190.0 -190.0 -190.0 -190.0 190.0 -10.186322622217908
-170.5730047508875 190.0 -190.0
